[32m[03/27 12:23:03 d2.engine.defaults]: [39mModel:
GeneralizedRCNN(
  (backbone): FPN(
    (fpn_lateral2): Conv2d(96, 256, kernel_size=(1, 1), stride=(1, 1))
    (fpn_output2): Conv2d(256, 256, kernel_size=(3, 3), stride=(1, 1), padding=(1, 1))
    (fpn_lateral3): Conv2d(192, 256, kernel_size=(1, 1), stride=(1, 1))
    (fpn_output3): Conv2d(256, 256, kernel_size=(3, 3), stride=(1, 1), padding=(1, 1))
    (fpn_lateral4): Conv2d(384, 256, kernel_size=(1, 1), stride=(1, 1))
    (fpn_output4): Conv2d(256, 256, kernel_size=(3, 3), stride=(1, 1), padding=(1, 1))
    (fpn_lateral5): Conv2d(768, 256, kernel_size=(1, 1), stride=(1, 1))
    (fpn_output5): Conv2d(256, 256, kernel_size=(3, 3), stride=(1, 1), padding=(1, 1))
    (top_block): LastLevelMaxPool()
    (bottom_up): SwinTransformer(
      (patch_embed): PatchEmbed(
        (proj): Conv2d(3, 96, kernel_size=(4, 4), stride=(4, 4))
        (norm): LayerNorm((96,), eps=1e-05, elementwise_affine=True)
      )
      (pos_drop): Dropout(p=0.0, inplace=False)
      (layers): ModuleList(
        (0): BasicLayer(
          (blocks): ModuleList(
            (0): SwinTransformerBlock(
              (norm1): LayerNorm((96,), eps=1e-05, elementwise_affine=True)
              (attn): WindowAttention(
                (qkv): Linear(in_features=96, out_features=288, bias=True)
                (attn_drop): Dropout(p=0.0, inplace=False)
                (proj): Linear(in_features=96, out_features=96, bias=True)
                (proj_drop): Dropout(p=0.0, inplace=False)
                (softmax): Softmax(dim=-1)
              )
              (drop_path): Identity()
              (norm2): LayerNorm((96,), eps=1e-05, elementwise_affine=True)
              (mlp): Mlp(
                (fc1): Linear(in_features=96, out_features=384, bias=True)
                (act): GELU()
                (fc2): Linear(in_features=384, out_features=96, bias=True)
                (drop): Dropout(p=0.0, inplace=False)
              )
            )
            (1): SwinTransformerBlock(
              (norm1): LayerNorm((96,), eps=1e-05, elementwise_affine=True)
              (attn): WindowAttention(
                (qkv): Linear(in_features=96, out_features=288, bias=True)
                (attn_drop): Dropout(p=0.0, inplace=False)
                (proj): Linear(in_features=96, out_features=96, bias=True)
                (proj_drop): Dropout(p=0.0, inplace=False)
                (softmax): Softmax(dim=-1)
              )
              (drop_path): DropPath()
              (norm2): LayerNorm((96,), eps=1e-05, elementwise_affine=True)
              (mlp): Mlp(
                (fc1): Linear(in_features=96, out_features=384, bias=True)
                (act): GELU()
                (fc2): Linear(in_features=384, out_features=96, bias=True)
                (drop): Dropout(p=0.0, inplace=False)
              )
            )
          )
          (downsample): PatchMerging(
            (reduction): Linear(in_features=384, out_features=192, bias=False)
            (norm): LayerNorm((384,), eps=1e-05, elementwise_affine=True)
          )
        )
        (1): BasicLayer(
          (blocks): ModuleList(
            (0): SwinTransformerBlock(
              (norm1): LayerNorm((192,), eps=1e-05, elementwise_affine=True)
              (attn): WindowAttention(
                (qkv): Linear(in_features=192, out_features=576, bias=True)
                (attn_drop): Dropout(p=0.0, inplace=False)
                (proj): Linear(in_features=192, out_features=192, bias=True)
                (proj_drop): Dropout(p=0.0, inplace=False)
                (softmax): Softmax(dim=-1)
              )
              (drop_path): DropPath()
              (norm2): LayerNorm((192,), eps=1e-05, elementwise_affine=True)
              (mlp): Mlp(
                (fc1): Linear(in_features=192, out_features=768, bias=True)
                (act): GELU()
                (fc2): Linear(in_features=768, out_features=192, bias=True)
                (drop): Dropout(p=0.0, inplace=False)
              )
            )
            (1): SwinTransformerBlock(
              (norm1): LayerNorm((192,), eps=1e-05, elementwise_affine=True)
              (attn): WindowAttention(
                (qkv): Linear(in_features=192, out_features=576, bias=True)
                (attn_drop): Dropout(p=0.0, inplace=False)
                (proj): Linear(in_features=192, out_features=192, bias=True)
                (proj_drop): Dropout(p=0.0, inplace=False)
                (softmax): Softmax(dim=-1)
              )
              (drop_path): DropPath()
              (norm2): LayerNorm((192,), eps=1e-05, elementwise_affine=True)
              (mlp): Mlp(
                (fc1): Linear(in_features=192, out_features=768, bias=True)
                (act): GELU()
                (fc2): Linear(in_features=768, out_features=192, bias=True)
                (drop): Dropout(p=0.0, inplace=False)
              )
            )
          )
          (downsample): PatchMerging(
            (reduction): Linear(in_features=768, out_features=384, bias=False)
            (norm): LayerNorm((768,), eps=1e-05, elementwise_affine=True)
          )
        )
        (2): BasicLayer(
          (blocks): ModuleList(
            (0): SwinTransformerBlock(
              (norm1): LayerNorm((384,), eps=1e-05, elementwise_affine=True)
              (attn): WindowAttention(
                (qkv): Linear(in_features=384, out_features=1152, bias=True)
                (attn_drop): Dropout(p=0.0, inplace=False)
                (proj): Linear(in_features=384, out_features=384, bias=True)
                (proj_drop): Dropout(p=0.0, inplace=False)
                (softmax): Softmax(dim=-1)
              )
              (drop_path): DropPath()
              (norm2): LayerNorm((384,), eps=1e-05, elementwise_affine=True)
              (mlp): Mlp(
                (fc1): Linear(in_features=384, out_features=1536, bias=True)
                (act): GELU()
                (fc2): Linear(in_features=1536, out_features=384, bias=True)
                (drop): Dropout(p=0.0, inplace=False)
              )
            )
            (1): SwinTransformerBlock(
              (norm1): LayerNorm((384,), eps=1e-05, elementwise_affine=True)
              (attn): WindowAttention(
                (qkv): Linear(in_features=384, out_features=1152, bias=True)
                (attn_drop): Dropout(p=0.0, inplace=False)
                (proj): Linear(in_features=384, out_features=384, bias=True)
                (proj_drop): Dropout(p=0.0, inplace=False)
                (softmax): Softmax(dim=-1)
              )
              (drop_path): DropPath()
              (norm2): LayerNorm((384,), eps=1e-05, elementwise_affine=True)
              (mlp): Mlp(
                (fc1): Linear(in_features=384, out_features=1536, bias=True)
                (act): GELU()
                (fc2): Linear(in_features=1536, out_features=384, bias=True)
                (drop): Dropout(p=0.0, inplace=False)
              )
            )
            (2): SwinTransformerBlock(
              (norm1): LayerNorm((384,), eps=1e-05, elementwise_affine=True)
              (attn): WindowAttention(
                (qkv): Linear(in_features=384, out_features=1152, bias=True)
                (attn_drop): Dropout(p=0.0, inplace=False)
                (proj): Linear(in_features=384, out_features=384, bias=True)
                (proj_drop): Dropout(p=0.0, inplace=False)
                (softmax): Softmax(dim=-1)
              )
              (drop_path): DropPath()
              (norm2): LayerNorm((384,), eps=1e-05, elementwise_affine=True)
              (mlp): Mlp(
                (fc1): Linear(in_features=384, out_features=1536, bias=True)
                (act): GELU()
                (fc2): Linear(in_features=1536, out_features=384, bias=True)
                (drop): Dropout(p=0.0, inplace=False)
              )
            )
            (3): SwinTransformerBlock(
              (norm1): LayerNorm((384,), eps=1e-05, elementwise_affine=True)
              (attn): WindowAttention(
                (qkv): Linear(in_features=384, out_features=1152, bias=True)
                (attn_drop): Dropout(p=0.0, inplace=False)
                (proj): Linear(in_features=384, out_features=384, bias=True)
                (proj_drop): Dropout(p=0.0, inplace=False)
                (softmax): Softmax(dim=-1)
              )
              (drop_path): DropPath()
              (norm2): LayerNorm((384,), eps=1e-05, elementwise_affine=True)
              (mlp): Mlp(
                (fc1): Linear(in_features=384, out_features=1536, bias=True)
                (act): GELU()
                (fc2): Linear(in_features=1536, out_features=384, bias=True)
                (drop): Dropout(p=0.0, inplace=False)
              )
            )
            (4): SwinTransformerBlock(
              (norm1): LayerNorm((384,), eps=1e-05, elementwise_affine=True)
              (attn): WindowAttention(
                (qkv): Linear(in_features=384, out_features=1152, bias=True)
                (attn_drop): Dropout(p=0.0, inplace=False)
                (proj): Linear(in_features=384, out_features=384, bias=True)
                (proj_drop): Dropout(p=0.0, inplace=False)
                (softmax): Softmax(dim=-1)
              )
              (drop_path): DropPath()
              (norm2): LayerNorm((384,), eps=1e-05, elementwise_affine=True)
              (mlp): Mlp(
                (fc1): Linear(in_features=384, out_features=1536, bias=True)
                (act): GELU()
                (fc2): Linear(in_features=1536, out_features=384, bias=True)
                (drop): Dropout(p=0.0, inplace=False)
              )
            )
            (5): SwinTransformerBlock(
              (norm1): LayerNorm((384,), eps=1e-05, elementwise_affine=True)
              (attn): WindowAttention(
                (qkv): Linear(in_features=384, out_features=1152, bias=True)
                (attn_drop): Dropout(p=0.0, inplace=False)
                (proj): Linear(in_features=384, out_features=384, bias=True)
                (proj_drop): Dropout(p=0.0, inplace=False)
                (softmax): Softmax(dim=-1)
              )
              (drop_path): DropPath()
              (norm2): LayerNorm((384,), eps=1e-05, elementwise_affine=True)
              (mlp): Mlp(
                (fc1): Linear(in_features=384, out_features=1536, bias=True)
                (act): GELU()
                (fc2): Linear(in_features=1536, out_features=384, bias=True)
                (drop): Dropout(p=0.0, inplace=False)
              )
            )
          )
          (downsample): PatchMerging(
            (reduction): Linear(in_features=1536, out_features=768, bias=False)
            (norm): LayerNorm((1536,), eps=1e-05, elementwise_affine=True)
          )
        )
        (3): BasicLayer(
          (blocks): ModuleList(
            (0): SwinTransformerBlock(
              (norm1): LayerNorm((768,), eps=1e-05, elementwise_affine=True)
              (attn): WindowAttention(
                (qkv): Linear(in_features=768, out_features=2304, bias=True)
                (attn_drop): Dropout(p=0.0, inplace=False)
                (proj): Linear(in_features=768, out_features=768, bias=True)
                (proj_drop): Dropout(p=0.0, inplace=False)
                (softmax): Softmax(dim=-1)
              )
              (drop_path): DropPath()
              (norm2): LayerNorm((768,), eps=1e-05, elementwise_affine=True)
              (mlp): Mlp(
                (fc1): Linear(in_features=768, out_features=3072, bias=True)
                (act): GELU()
                (fc2): Linear(in_features=3072, out_features=768, bias=True)
                (drop): Dropout(p=0.0, inplace=False)
              )
            )
            (1): SwinTransformerBlock(
              (norm1): LayerNorm((768,), eps=1e-05, elementwise_affine=True)
              (attn): WindowAttention(
                (qkv): Linear(in_features=768, out_features=2304, bias=True)
                (attn_drop): Dropout(p=0.0, inplace=False)
                (proj): Linear(in_features=768, out_features=768, bias=True)
                (proj_drop): Dropout(p=0.0, inplace=False)
                (softmax): Softmax(dim=-1)
              )
              (drop_path): DropPath()
              (norm2): LayerNorm((768,), eps=1e-05, elementwise_affine=True)
              (mlp): Mlp(
                (fc1): Linear(in_features=768, out_features=3072, bias=True)
                (act): GELU()
                (fc2): Linear(in_features=3072, out_features=768, bias=True)
                (drop): Dropout(p=0.0, inplace=False)
              )
            )
          )
        )
      )
      (norm0): LayerNorm((96,), eps=1e-05, elementwise_affine=True)
      (norm1): LayerNorm((192,), eps=1e-05, elementwise_affine=True)
      (norm2): LayerNorm((384,), eps=1e-05, elementwise_affine=True)
      (norm3): LayerNorm((768,), eps=1e-05, elementwise_affine=True)
    )
  )
  (proposal_generator): RPN(
    (rpn_head): StandardRPNHead(
      (conv): Conv2d(
        256, 256, kernel_size=(3, 3), stride=(1, 1), padding=(1, 1)
        (activation): ReLU()
      )
      (objectness_logits): Conv2d(256, 3, kernel_size=(1, 1), stride=(1, 1))
      (anchor_deltas): Conv2d(256, 12, kernel_size=(1, 1), stride=(1, 1))
    )
    (anchor_generator): DefaultAnchorGenerator(
      (cell_anchors): BufferList()
    )
  )
  (roi_heads): StandardROIHeads(
    (box_pooler): ROIPooler(
      (level_poolers): ModuleList(
        (0): ROIAlign(output_size=(7, 7), spatial_scale=0.25, sampling_ratio=0, aligned=True)
        (1): ROIAlign(output_size=(7, 7), spatial_scale=0.125, sampling_ratio=0, aligned=True)
        (2): ROIAlign(output_size=(7, 7), spatial_scale=0.0625, sampling_ratio=0, aligned=True)
        (3): ROIAlign(output_size=(7, 7), spatial_scale=0.03125, sampling_ratio=0, aligned=True)
      )
    )
    (box_head): FastRCNNConvFCHead(
      (flatten): Flatten(start_dim=1, end_dim=-1)
      (fc1): Linear(in_features=12544, out_features=1024, bias=True)
      (fc_relu1): ReLU()
      (fc2): Linear(in_features=1024, out_features=1024, bias=True)
      (fc_relu2): ReLU()
    )
    (box_predictor): FastRCNNOutputLayers(
      (cls_score): Linear(in_features=1024, out_features=11, bias=True)
      (bbox_pred): Linear(in_features=1024, out_features=40, bias=True)
    )
  )
)
[32m[03/27 12:23:04 d2.data.datasets.coco]: [39mLoaded 4280 images in COCO format from ../../dataset/SK_train_annotations.json
[32m[03/27 12:23:04 d2.data.build]: [39mRemoved 0 images with no usable annotations. 4280 images left.
[32m[03/27 12:23:04 d2.data.build]: [39mDistribution of instances among all 10 categories:
[36m|   category    | #instances   |  category   | #instances   |  category  | #instances   |
…
